miniGPT.pth (torch, 993320 bytes, 58 tensors)

token_embedding.weight f4 [32, 64]
1.0076877 -1.8573515 -1.5150586 -0.67426676 0.31787986 -1.5339546 0.5890241 -0.38209236
-0.66785765 -0.6231732 -1.9682423 0.7205845 -0.23085551 -0.20378658 -1.6513034 -0.13555928
-0.68955123 0.3547658 0.8727332 -2.1757734 0.7481106 -0.48721257 -0.8233776 0.0042119604
2.1418695 1.1787366 1.2882589 -0.86331195 0.93487495 -0.54394704 -0.45517918 0.6872418
1.0067574 1.6328746 0.10325508 -2.5125394 0.1499405 -0.33076528 0.9310486 -0.8490677
0.365823 0.30811197 0.88052124 -0.105817355 0.7937534 0.14465253 -1.6317716 -0.06384675
0.47476515 0.14766648 -0.3051595 1.255204 0.23293108 -0.1730521 -0.05390619 0.9334504
0.20639615 0.85921216 -0.7181303 0.086519144 0.9563053 0.13484417 0.3029643 -0.012668274
0.63915867 -0.761679 0.1765724 0.3201353 1.0358213 -0.013547421 -1.8480793 0.05421173
1.032192 1.0710397 0.6553231 -0.02448326 0.06914132 1.2591453 0.0023575935 -1.8968521
0.35974568 -0.10799621 -1.8560137 0.12452851 0.25888726 1.6613222 0.038650382 -0.2856635
-0.88826513 -1.8830079 -0.60539377 -0.5244127 -1.0943269 -1.3308246 0.473035 -0.6923485
1.1291382 -0.3270505 -0.29654723 -2.0155046 1.6114918 -0.70093775 0.14654008 0.09738264
0.7381053 -2.3544738 0.52376795 0.9018488 0.5827174 0.035912152 -0.5961431 -0.4802349
-0.38446558 -1.1467252 0.5626111 1.9614704 0.5853943 0.22379068 0.40126282 0.23542066
0.22547756 -0.6393251 -0.94058895 0.34020266 -0.0052289036 -0.547114 1.5053377 -1.2971337
-0.41278994 -0.6038587 1.1922553 1.1320908 1.7385281 -1.4618725 1.2836281 -0.08957696
0.7850235 1.6227764 -1.5093286 -0.1383425 -1.109932 -1.0985047 -0.40975454 -0.3157954
0.93816495 0.106128156 0.012532793 1.2172153 -0.13561103 -0.5146798 -0.72484344 -0.98127246
1.1756518 -0.6897532 -0.047009543 0.07674431 -0.4510306 0.5061646 -0.13202581 0.29787627
-1.7688634 -1.3400902 -0.90724504 0.29857197 -0.35990992 -1.4968424 2.3543658 -0.7258201
1.959303 -1.7161528 0.84019816 -0.8946107 -0.45128068 -0.51860386 0.23034851 1.6727923
0.45136157 1.8736024 1.0394144 0.22444063 -0.4264925 0.07314736 -1.563811 0.17599818
-1.39191 0.48630887 0.06640427 -1.0326118 0.93840694 0.9971608 -0.075884305 1.9997284
-1.0640168 -0.48988083 0.46246162 -1.0226871 0.48430762 1.6179944 -0.29669708 -0.5515155
-0.60493267 1.9215413 0.7091469 -0.8403347 -1.4402207 -0.75935435 0.14477761 0.059087675
-1.3471048 0.457148 -1.4381615 -1.0742236 2.4035609 -0.11650919 -0.7105576 -0.21178128
0.106683396 -0.9657028 0.49380112 0.13350208 0.7291272 -0.81619763 0.37236547 0.061571293
0.2307968 0.33242956 -1.1457424 -0.24629986 0.5971951 -1.3365684 -0.44567966 -0.43650112
0.69114524 -0.7966845 0.044683382 -0.71139234 -0.8545401 -0.3401331 -1.3282715 -0.32769713
1.6719937 1.052911 -1.0858585 -0.41175738 0.85204 0.3490757 -1.4011563 0.6346874
-0.6693283 -1.2377218 -0.7209956 0.89388597 -0.045320764 0.06641165 0.8648038 0.1327459
00000000: e9fb 803f b2bd edbf 71ed c1bf bf9c 2cbf
00000010: 26c1 a23e a058 c4bf 49ca 163f 9ca1 c3be
00000020: b8f8 2abf 4788 1fbf 5def fbbf 3a78 383f
00000030: 6365 6cbe 6ead 50be e95d d3bf 0dd0 0abe
00000040: 6e86 30bf dda3 b53e 716b 5f3f df3f 0bc0
00000050: 2d84 3f3f ed73 f9be e0c8 52bf 7c04 8a3b
00000060: 6414 0940 d7e0 963f abe5 a43f 0302 5dbf
00000070: f753 6f3f 1d40 0bbf 3f0d e9be 14ef 2f3f
00000080: 6ddd 803f 0902 d13f 6677 d33d 72cd 20c0
00000090: 018a 193e 115a a9be 3359 6e3f 805c 59bf
000000a0: 274d bb3e dac0 9d3e d769 613f c5b6 d8bd
000000b0: 6c33 4b3f cb1f 143e e4dd d0bf 16c2 82bd
000000c0: 6b14 f33e e235 173e de3d 9cbe 86aa a03f
000000d0: 7c85 6e3e 9234 31be bdcc 5cbd 9bf6 6e3f
000000e0: 8359 533e 54f5 5b3f 63d7 37bf f330 b13d
000000f0: 6dd0 743f 9714 0a3e 231e 9b3e 988e 4fbc
00000100: e79f 233f 65fd 42bf 65cf 343e c6e8 a33e
00000110: cb95 843f 01f6 5dbc dd8d ecbf 1e0d 5e3d
00000120: de1e 843f d417 893f 41c3 273f 1e91 c8bc
00000130: f799 8d3d ac2b a13f db81 1a3b 0dcc f2bf
00000140: 9630 b83e 1e2d ddbd db91 edbf ce08 ff3d
00000150: df8c 843e 35a6 d43f dd4f 1e3d 7c42 92be
00000160: 5865 63bf 6706 f1bf 16fb 1abf e93f 06bf
00000170: e712 8cbf 7658 aabf a531 f23e c03d 31bf
00000180: 9a87 903f 2a73 a7be 0ad5 97be 07fe 00c0
00000190: 5d45 ce3f a870 33bf 9a0e 163e 8d70 c73d
000001a0: 78f4 3c3f b3af 16c0 a815 063f 90df 663f
000001b0: f82c 153f 9f18 133d d69c 18bf 59e1 f5be
000001c0: acd8 c4be e4c7 92bf 4807 103f 7611 fb3f
000001d0: 67dc 153f 6229 653e 5272 cd3e 1d12 713e
000001e0: 97e3 663e cfaa 23bf 70ca 70bf 0b2f ae3e
000001f0: 3957 abbb aa0f 0cbf e8ae c03f 7a08 a6bf
00000200: 3459 d3be 7c96 1abf d29b 983f 5ae8 903f
00000210: 1788 de3f a31e bbbf ed4d a43f 2074 b7bd
00000220: 4df7 483f 23b7 cf3f ae31 c1bf a8a9 0dbe
00000230: 4012 8ebf cd9b 8cbf 59cb d1be efaf a1be
00000240: 942b 703f b859 d93d 5856 4d3c b6cd 9b3f
00000250: 9edd 0abe 0ec2 03bf 578f 39bf ac34 7bbf
00000260: c27b 963f aa93 30bf 148d 40bd 1f2c 9d3d
00000270: 7ced e6be 0194 013f c631 07be 3d83 983e
00000280: 1e6a e2bf 1388 abbf 3641 68bf 6dde 983e
00000290: 1d46 b8be 8898 bfbf eead 1640 59cf 39bf
000002a0: 71ca fa3f e5aa dbbf 3a17 573f 3505 65bf
000002b0: 430e e7be 39c3 04bf 7be0 6b3e 0f1e d63f
000002c0: dd18 e73e 34d2 ef3f 880b 853f c4d3 653e
000002d0: 3a5d dabe 48ce 953d f52a c8bf de38 343e
000002e0: 1b2a b2bf 7afd f83e f6fe 873d a02c 84bf
000002f0: 703b 703f ee45 7f3f 3b69 9bbd 1af7 ff3f
00000300: b431 88bf a9d1 fabe c5c7 ec3e 69e7 82bf
00000310: 2bf7 f73e 711a cf3f aee8 97be 1f30 0dbf
00000320: dedc 1abf 11f5 f53f a78a 353f 2d20 57bf
00000330: 2759 b8bf 0c65 42bf 9540 143e eb05 723d
00000340: ee6d acbf 4d0f ea3e ad15 b8bf 2980 89bf
00000350: f1d3 1940 5f9c eebd 1ae7 35bf 31dd 58be
00000360: d37c da3d 4c38 77bf 80d3 fc3e c5b4 083e
00000370: 15a8 3a3f 54f2 50bf b0a6 be3e 2e32 7c3d
00000380: ff55 6c3e 3534 aa3e b0a7 92bf 0836 7cbe
00000390: c7e1 183f ac14 abbf 2030 e4be 137d dfbe
000003a0: e5ee 303f 84f3 4bbf ec05 373d cf1d 36bf
000003b0: 24c3 5abf ed25 aebe cd04 aabf ebc7 a7be
000003c0: e403 d63f cac5 863f 69fd 8abf ddd1 d2be
000003d0: 4b1f 5a3f 0dba b23e 1759 b3bf e07a 223f
000003e0: 1959 2bbf ab6d 9ebf 2b93 38bf b6d5 643f
000003f0: 44a2 39bd d502 883d c863 5d3f 8bee 073e

position_embedding.weight f4 [128, 64]
0.35500285 -0.3846997 -1.6350664 -0.056984358 -0.6023967 -1.023032 -1.0456146 -1.2548777
-0.72568214 -0.9035625 0.7500472 0.51527876 -0.5295223 -0.5299302 0.47820193 0.5338985
-1.4692329 0.35034224 -1.5248251 1.0729375 -0.10653736 -1.0237949 0.84832144 -0.4778306
-1.453482 0.5163074 -1.0336449 0.32441843 -0.15778485 -0.22226599 -0.18743853 -1.2070962
0.55464613 0.0046415995 -0.33104602 -0.6732604 1.1105225 1.2980618 -0.04471289 -1.4436231
-1.078788 -0.42181954 0.06521443 1.2414212 1.6556225 0.064290926 0.5974232 -1.6591513
-2.173971 -0.9924951 -0.79580665 -0.5950209 0.9771083 0.22110006 0.32744026 -0.06448524
1.2873502 -1.4511753 -0.31620026 -0.46343067 -0.6565942 -1.1561236 -0.64560413 1.2996582
0.47681615 0.19498344 -0.44845638 -0.24944623 1.1108023 1.0563412 0.97386956 -0.012490501
-0.44778532 -1.1650853 0.92383885 1.2379566 0.40161604 0.64432806 -0.14542323 0.82398254
-1.1136515 -0.389218 1.2302798 0.67672193 0.38668153 1.2600887 0.8963612 -0.5492335
-0.53884155 0.56209964 -0.6357034 -0.76388586 0.22074905 0.8240987 0.96923417 0.4391765
0.02849899 -0.061691064 -0.5286347 -1.2205261 0.6189243 0.18039654 1.5712489 0.61576957
-0.53276473 0.48296434 -0.013163217 0.9046687 -1.0361055 -0.87118167 1.2391168 -0.4217467
0.22479615 -0.19395962 -0.45274115 0.48522723 1.0712634 -1.5028431 -1.9913394 -0.80576134
-0.61991763 0.3077241 -1.116875 0.47747913 0.41064167 -0.19158866 -0.40231955 -0.19709978
-0.19188458 1.4767452 1.0338756 -1.0327268 -1.372315 1.9090722 0.2513601 -0.47121868
0.11940365 -1.0718894 -0.2684149 0.34598747 0.057656053 0.76413697 0.38558814 -1.2158872
-0.48844135 0.02094185 -0.01779775 0.4750601 -0.5534711 -0.24601462 -0.57657105 -0.49603078
-0.41332 -1.0244883 0.027358929 1.2958906 -1.2690548 -0.92384666 -0.14402363 0.33951408
-0.023361403 0.09314684 -0.47660717 1.7524899 0.12452111 -1.0523505 0.24038821 1.3302702
-0.38771546 1.7551341 0.85249627 -1.3405639 1.1696345 -0.6028311 0.21564552 -0.8693982
1.3611206 -0.05076579 0.26222375 -0.6181101 0.2133348 0.5882967 -0.7007446 -0.0023075503
-0.5080187 1.6419461 0.8112703 0.79605854 -0.88971865 -0.33563128 -0.1266307 0.48001215
-1.073581 0.2699048 1.9932947 0.8315338 0.9199147 1.3285075 -1.3951945 -0.57286775
-0.7322938 -0.11138456 -0.68482363 -0.41383618 0.257934 1.7197113 0.34392387 -0.46862566
-0.047499485 0.8900246 0.17780763 -0.9698921 1.0220602 2.0000892 -0.5264908 0.0047976146
0.07559479 -0.9475387 0.005922295 0.3360556 0.30940095 1.0748065 -0.92227626 -1.4259498
-0.55497545 0.06309961 0.19352244 -0.15435779 -0.7909607 -0.85652184 -0.88947237 -0.10139981
0.063165635 1.3600057 0.452077 0.27353525 -0.49892485 0.930579 1.4359727 0.19358012
0.76917595 -0.09252578 -1.8626308 -0.58272624 -0.7664043 -0.87481976 0.48212677 -0.6745706
1.4990332 -1.3125108 0.7488568 -0.39090326 0.61042136 -0.7597703 -0.85835844 -0.39231214
00000000: efc2 b53e 5cf7 c4be db49 d1bf 6e68 69bd
00000010: ac36 1abf b6f2 82bf b3d6 85bf d59f a0bf
00000020: 4ec6 39bf df4f 67bf 1803 403f 4fe9 033f
00000030: c68e 07bf 81a9 07bf e2d6 f43e 92ad 083f
00000040: d30f bcbf 0f60 b33e 782d c3bf 0456 893f
00000050: 4230 dabd b60b 83bf 982b 593f 36a6 f4be
00000060: b30b babf b92c 043f 7a4e 84bf 2c1a a63e
00000070: 5a92 21be b299 63be e3ef 3fbe 2182 9abf
00000080: 4afd 0d3f 8f18 983b dd7e a9be cb5a 2cbf
00000090: 9a25 8e3f e426 a63f dd24 37bd a4c8 b8bf
000000a0: ba15 8abf bbf8 d7be 258f 853d e4e6 9e3f
000000b0: 70eb d33f f6aa 833d baf0 183f 125f d4bf
000000c0: 5722 0bc0 2914 7ebf fcb9 4bbf 4a53 18bf
000000d0: c523 7a3f 0e68 623e 40a6 a73e d610 84bd
000000e0: e4c7 a43f 1dc0 b9bf 00e5 a1be c946 edbe
000000f0: 8f16 28bf dcfb 93bf 5046 25bf 335b a63f
00000100: 3f21 f43e bda9 473e 139c e5be d56e 7fbe
00000110: c52e 8e3f 3036 873f 844f 793f f5a4 4cbc
00000120: 1e44 e5be 8421 95bf b480 6c3f 5d75 9e3f
00000130: 9ea0 cd3e aff2 243f d4e9 14be 85f0 523f
00000140: 228c 8ebf 9547 c7be cf79 9d3f a63d 2d3f
00000150: 1ffb c53e 964a a13f ed77 653f 919a 0cbf
00000160: 85f1 09bf c3e5 0f3f 75bd 22bf 068e 43bf
00000170: 0a0c 623e 22f8 523f bb1f 783f bedb e03e
00000180: b776 e93c c5af 7cbd 9b54 07bf 333a 9cbf
00000190: d371 1e3f dfb9 383e af1e c93f 13a3 1d3f
000001a0: 4563 08bf 1a47 f73e 89aa 57bc 5e98 673f
000001b0: 1b9f 84bf c305 5fbf 619b 9e3f 2fef d7be
000001c0: f630 663e 5a9d 46be b0cd e7be b46f f83e
000001d0: 291f 893f 2a5d c0bf 36e4 febf 6046 4ebf
000001e0: ecb2 1ebf 038e 9d3e c3f5 8ebf 2578 f43e
000001f0: a03f d23e d12f 44be d4fc cdbe 86d4 49be
00000200: 647d 44be fd05 bd3f 0956 843f 6430 84bf
00000210: 05a8 afbf 7a5c f43f 45b2 803e 9343 f1be
00000220: e789 f43d ac33 89bf ae6d 89be 4525 b13e
00000230: c128 6c3d 7b9e 433f cf6b c53e 31a2 9bbf
00000240: fc14 fabe 3e8e ab3c 96cc 91bc 143b f33e
00000250: 48b0 0dbf 42eb 7bbe 299a 13bf bff7 fdbe
00000260: ae9e d3be 6f22 83bf d51f e03c bedf a53f
00000270: 6370 a2bf 3781 6cbf ee7a 13be cad4 ad3e
00000280: 6a60 bfbc c5c3 be3d db05 f4be 9751 e03f
00000290: ec04 ff3d 6cb3 86bf 5428 763e 4b46 aa3f
000002a0: a482 c6be 3ca8 e03f 323d 5a3f 9997 abbf
000002b0: 95b6 953f 2453 1abf 2ed2 5c3e e190 5ebf
000002c0: 3339 ae3f caef 4fbd 3142 863e 773c 1ebf
000002d0: 7074 5a3e 9d9a 163f 0064 33bf 453a 17bb
000002e0: 830d 02bf 4a2b d23f 69af 4f3f 7eca 4b3f
000002f0: 9ac4 63bf ddd7 abbe 7aab 01be 27c4 f53e
00000300: 1a6b 89bf f630 8a3e 4824 ff3f 66df 543f
00000310: 887f 6b3f 890c aa3f bc95 b2bf 76a7 12bf
00000320: 9b77 3bbf 971d e4bd 9a50 2fbf 56e2 d3be
00000330: ed0f 843e 801f dc3f ca16 b03e b4ef efbe
00000340: d28e 42bd a7d8 633f 3413 363e d94a 78bf
00000350: ded2 823f 7601 0040 1ac8 06bf 4f35 9d3b
00000360: 71d1 9a3d e591 72bf d00f c23b 7b0f ac3e
00000370: cd69 9e3e 4293 893f 4c1a 6cbf 8685 b6bf
00000380: df12 0ebf 5e3a 813d bf2a 463e f80f 1ebe
00000390: 677c 4abf 0445 5bbf 76b4 63bf b4aa cfbd
000003a0: fc5c 813d ab14 ae3f a376 e73e d00c 8c3e
000003b0: 1473 ffbe 6d3a 6e3f f4cd b73f de39 463e
000003c0: b7e8 443f 287e bdbd b06a eebf 8c2d 15bf
000003d0: 1233 44bf 30f4 5fbf 52d9 f63e a9b0 2cbf
000003e0: 52e0 bf3f 5b00 a8bf 14b5 3f3f 7924 c8be
000003f0: 9344 1c3f 4e80 42bf 61bd 5bbf 23dd c8be

blocks.0.sa.heads.0.tril f4 [128, 128]
1.0 0.0 0.0 0.0 0.0 0.0 0.0 0.0
0.0 0.0 0.0 0.0 0.0 0.0 0.0 0.0
0.0 0.0 0.0 0.0 0.0 0.0 0.0 0.0
0.0 0.0 0.0 0.0 0.0 0.0 0.0 0.0
0.0 0.0 0.0 0.0 0.0 0.0 0.0 0.0
0.0 0.0 0.0 0.0 0.0 0.0 0.0 0.0
0.0 0.0 0.0 0.0 0.0 0.0 0.0 0.0
0.0 0.0 0.0 0.0 0.0 0.0 0.0 0.0
0.0 0.0 0.0 0.0 0.0 0.0 0.0 0.0
0.0 0.0 0.0 0.0 0.0 0.0 0.0 0.0
0.0 0.0 0.0 0.0 0.0 0.0 0.0 0.0
0.0 0.0 0.0 0.0 0.0 0.0 0.0 0.0
0.0 0.0 0.0 0.0 0.0 0.0 0.0 0.0
0.0 0.0 0.0 0.0 0.0 0.0 0.0 0.0
0.0 0.0 0.0 0.0 0.0 0.0 0.0 0.0
0.0 0.0 0.0 0.0 0.0 0.0 0.0 0.0
1.0 1.0 0.0 0.0 0.0 0.0 0.0 0.0
0.0 0.0 0.0 0.0 0.0 0.0 0.0 0.0
0.0 0.0 0.0 0.0 0.0 0.0 0.0 0.0
0.0 0.0 0.0 0.0 0.0 0.0 0.0 0.0
0.0 0.0 0.0 0.0 0.0 0.0 0.0 0.0
0.0 0.0 0.0 0.0 0.0 0.0 0.0 0.0
0.0 0.0 0.0 0.0 0.0 0.0 0.0 0.0
0.0 0.0 0.0 0.0 0.0 0.0 0.0 0.0
0.0 0.0 0.0 0.0 0.0 0.0 0.0 0.0
0.0 0.0 0.0 0.0 0.0 0.0 0.0 0.0
0.0 0.0 0.0 0.0 0.0 0.0 0.0 0.0
0.0 0.0 0.0 0.0 0.0 0.0 0.0 0.0
0.0 0.0 0.0 0.0 0.0 0.0 0.0 0.0
0.0 0.0 0.0 0.0 0.0 0.0 0.0 0.0
0.0 0.0 0.0 0.0 0.0 0.0 0.0 0.0
0.0 0.0 0.0 0.0 0.0 0.0 0.0 0.0
00000000: 0000 803f 0000 0000 0000 0000 0000 0000
00000010: 0000 0000 0000 0000 0000 0000 0000 0000
00000020: 0000 0000 0000 0000 0000 0000 0000 0000
00000030: 0000 0000 0000 0000 0000 0000 0000 0000
00000040: 0000 0000 0000 0000 0000 0000 0000 0000
00000050: 0000 0000 0000 0000 0000 0000 0000 0000
00000060: 0000 0000 0000 0000 0000 0000 0000 0000
00000070: 0000 0000 0000 0000 0000 0000 0000 0000
00000080: 0000 0000 0000 0000 0000 0000 0000 0000
00000090: 0000 0000 0000 0000 0000 0000 0000 0000
000000a0: 0000 0000 0000 0000 0000 0000 0000 0000
000000b0: 0000 0000 0000 0000 0000 0000 0000 0000
000000c0: 0000 0000 0000 0000 0000 0000 0000 0000
000000d0: 0000 0000 0000 0000 0000 0000 0000 0000
000000e0: 0000 0000 0000 0000 0000 0000 0000 0000
000000f0: 0000 0000 0000 0000 0000 0000 0000 0000
00000100: 0000 0000 0000 0000 0000 0000 0000 0000
00000110: 0000 0000 0000 0000 0000 0000 0000 0000
00000120: 0000 0000 0000 0000 0000 0000 0000 0000
00000130: 0000 0000 0000 0000 0000 0000 0000 0000
00000140: 0000 0000 0000 0000 0000 0000 0000 0000
00000150: 0000 0000 0000 0000 0000 0000 0000 0000
00000160: 0000 0000 0000 0000 0000 0000 0000 0000
00000170: 0000 0000 0000 0000 0000 0000 0000 0000
00000180: 0000 0000 0000 0000 0000 0000 0000 0000
00000190: 0000 0000 0000 0000 0000 0000 0000 0000
000001a0: 0000 0000 0000 0000 0000 0000 0000 0000
000001b0: 0000 0000 0000 0000 0000 0000 0000 0000
000001c0: 0000 0000 0000 0000 0000 0000 0000 0000
000001d0: 0000 0000 0000 0000 0000 0000 0000 0000
000001e0: 0000 0000 0000 0000 0000 0000 0000 0000
000001f0: 0000 0000 0000 0000 0000 0000 0000 0000
00000200: 0000 803f 0000 803f 0000 0000 0000 0000
00000210: 0000 0000 0000 0000 0000 0000 0000 0000
00000220: 0000 0000 0000 0000 0000 0000 0000 0000
00000230: 0000 0000 0000 0000 0000 0000 0000 0000
00000240: 0000 0000 0000 0000 0000 0000 0000 0000
00000250: 0000 0000 0000 0000 0000 0000 0000 0000
00000260: 0000 0000 0000 0000 0000 0000 0000 0000
00000270: 0000 0000 0000 0000 0000 0000 0000 0000
00000280: 0000 0000 0000 0000 0000 0000 0000 0000
00000290: 0000 0000 0000 0000 0000 0000 0000 0000
000002a0: 0000 0000 0000 0000 0000 0000 0000 0000
000002b0: 0000 0000 0000 0000 0000 0000 0000 0000
000002c0: 0000 0000 0000 0000 0000 0000 0000 0000
000002d0: 0000 0000 0000 0000 0000 0000 0000 0000
000002e0: 0000 0000 0000 0000 0000 0000 0000 0000
000002f0: 0000 0000 0000 0000 0000 0000 0000 0000
00000300: 0000 0000 0000 0000 0000 0000 0000 0000
00000310: 0000 0000 0000 0000 0000 0000 0000 0000
00000320: 0000 0000 0000 0000 0000 0000 0000 0000
00000330: 0000 0000 0000 0000 0000 0000 0000 0000
00000340: 0000 0000 0000 0000 0000 0000 0000 0000
00000350: 0000 0000 0000 0000 0000 0000 0000 0000
00000360: 0000 0000 0000 0000 0000 0000 0000 0000
00000370: 0000 0000 0000 0000 0000 0000 0000 0000
00000380: 0000 0000 0000 0000 0000 0000 0000 0000
00000390: 0000 0000 0000 0000 0000 0000 0000 0000
000003a0: 0000 0000 0000 0000 0000 0000 0000 0000
000003b0: 0000 0000 0000 0000 0000 0000 0000 0000
000003c0: 0000 0000 0000 0000 0000 0000 0000 0000
000003d0: 0000 0000 0000 0000 0000 0000 0000 0000
000003e0: 0000 0000 0000 0000 0000 0000 0000 0000
000003f0: 0000 0000 0000 0000 0000 0000 0000 0000

blocks.0.sa.heads.0.key.weight f4 [16, 64]
-0.06949664 0.18089306 -0.1633853 0.15431607 0.045511305 -0.019374423 0.0109851435 -0.116956554
-0.09304778 -0.07385064 -0.097919784 0.023155112 -0.018950442 0.20199427 0.10354995 0.004804569
-0.17166877 0.11112947 -0.12573372 0.15643156 0.06602527 -0.082131825 -0.06154698 0.058293488
-0.080708034 -0.054462455 0.004531267 0.024247846 -0.006864533 0.027671035 0.1537668 0.020233218
0.07561784 -0.20630774 -0.10560911 -0.05372174 0.13897173 -0.11195982 -0.08497043 -0.101076536
0.018370653 -0.14194645 0.19652358 -0.046862658 0.05740548 -0.016443776 0.05929858 0.0042385515
-0.13305971 -0.1673506 -0.083476774 -0.011737493 0.24655582 -0.12011129 0.110810354 0.16328584
-0.18655446 0.04136751 0.014442086 -0.1635355 -0.21818188 -0.064914025 0.056124758 0.007865567
-0.11112407 -0.10060549 0.061147206 0.18069589 0.035313226 -0.051962283 0.06953953 -0.0408271
-0.10413417 0.031967953 0.11112761 0.08832962 0.056971207 -0.090591 -0.2775487 0.17257369
-0.0039927554 -0.22664374 -0.10956732 0.08629961 0.046953224 0.034228522 0.095512986 -0.079416856
0.08685579 -0.10722611 -0.11458473 0.07441237 0.008920552 -0.034787063 -0.15406154 -0.11919835
-0.14171955 0.16914074 0.06757375 -0.019296203 0.035657052 0.060798015 -0.09577656 -0.036927294
0.24512902 -0.13391134 -0.022801923 0.026239855 -0.17514962 -0.041251373 0.15693219 0.09024209
-0.10574523 -0.07273024 0.09776444 0.0002938373 -0.10289295 0.094923325 0.17313714 0.12049848
0.09206139 0.020631848 0.13613687 0.064305566 0.08184489 -0.14738251 -0.114363685 0.04968535
0.010315506 -0.039384436 0.0071492647 -0.0014440697 0.0808655 0.050393805 -0.018211743 -0.11817027
0.061304536 0.11788497 -0.04881665 -0.059901405 -0.0059601106 0.07549162 -0.08849566 -0.0020075706
-0.036652118 -0.15317215 0.04810126 -0.12968689 -0.16836916 -0.067467 -0.06401884 -0.008918807
-0.018728325 -0.14303178 -0.094248645 0.13601401 -0.12704964 -0.029880203 -0.07711215 -0.06920478
-0.1349031 0.19049963 -0.08545831 0.041159946 -0.04871232 -0.069554985 -0.10283948 -0.008913009
0.12450168 0.08764329 -0.033905357 -0.09582839 0.09628067 0.04649172 0.032718547 0.10090621
0.029233124 -0.073714584 0.20154129 0.059584294 0.00471088 -0.0275962 -0.016100926 0.0004959002
0.17213912 -0.058306232 0.10468976 0.12581047 0.06911341 -0.004423792 -0.13120462 0.11253451
-0.1615029 -0.01306538 0.044327024 0.11662959 0.087525874 0.0025689895 0.016749697 0.013754098
0.064351685 -0.042224232 0.08155092 0.012553483 0.20875178 0.1700811 -0.0407503 -0.13180067
0.03202189 0.067716114 -0.21707445 0.094230495 0.077143624 0.09102926 -0.015399401 0.25270328
0.043237068 -0.15832283 -0.13407621 0.0038096479 -0.049245037 -0.055379264 -0.13186984 -0.09164415
-0.060475674 -0.09575915 0.018168043 -0.15603976 0.05430965 -0.092761636 0.035151083 -0.023104828
0.18969758 0.25081918 0.047597043 0.023328131 0.10523596 -0.028767452 -0.024837587 -0.030173846
-0.010839723 -0.21013798 0.014226542 -0.12444335 -0.018165862 0.00031642924 0.016867496 0.02246079
0.02983086 -0.010002149 0.08863959 -0.09178045 0.12730473 -0.09351922 -0.13371411 0.043328978
00000000: 4154 8ebd 083c 393e 7a4e 27be 0805 1e3e
00000010: 106a 3a3d 1cb7 9ebc 08fb 333c eb86 efbd
00000020: d68f bebd 013f 97bd 2b8a c8bd caaf bd3c
00000030: f53d 9bbc 96d7 4e3e ff11 d43d a56f 9d3b
00000040: f0c9 2fbe d997 e33d 57c0 00be 982f 203e
00000050: 4238 873d bb34 a8bd b018 7cbd 27c5 6e3d
00000060: 414a a5bd 0614 5fbd 067b 943b 6ba3 c63c
00000070: e0ef e0bb 5eae e23c 0b75 1d3e 22c0 a53c
00000080: 87dd 9a3d 5642 53be 9749 d8bd 540b 5cbd
00000090: 9b4e 0e3e 314b e5bd fa04 aebd 3701 cfbd
000000a0: 0d7e 963c 695a 11be 7a3d 493e 0ff3 3fbd
000000b0: 0222 6b3d 19b5 86bc 11e3 723d 8ce3 8a3b
000000c0: ce40 08be f55d 2bbe dff5 aabd 9d4e 40bc
000000d0: 2179 7c3e e8fc f5bd 8af0 e23d 6734 273e
000000e0: 2208 3fbe fa70 293d 809e 6c3c da75 27be
000000f0: 126b 5fbe a5f1 84bd 13e3 653d 94de 003c
00000100: 0495 e3bd 400a cebd 7e75 7a3d 5808 393e
00000110: 9aa4 103d 67d6 54bd be6a 8e3d 513a 27bd
00000120: 4c44 d5bd d4f0 023d df96 e33d 29e6 b43d
00000130: a45a 693d c687 b9bd dd1a 8ebe 28b7 303e
00000140: a9d5 82bb 4c15 68be d564 e0bd dabd b03d
00000150: 0652 403d 3533 0c3d 509c c33d 4ea5 a2bd
00000160: 73e1 b13d 5d99 dbbd 66ab eabd 8365 983d
00000170: 8227 123c e17c 0ebd 4fc2 1dbe 441e f4bd
00000180: ee1e 11be 3b33 2d3e 1b64 8a3d 1213 9ebc
00000190: 210d 123d 5707 793d 8026 c4bd 1341 17bd
000001a0: 1a03 7b3e 0e20 09be 19cb babc f7f4 d63c
000001b0: 6c5a 33be 33f7 28bd d5b2 203e d8d0 b83d
000001c0: f590 d8bd 98f3 94bd b938 c83d 2d0e 9a39
000001d0: 8ab9 d2bd 2967 c23d dd4a 313e e8c7 f63d
000001e0: af8a bc3d 1f04 a93c 7767 0b3e a3b2 833d
000001f0: 4b9e a73d 71eb 16be 8237 eabd de82 4b3d
00000200: 5e02 293c 9351 21bd 6144 ea3b f046 bdba
00000210: d09c a53d bc69 4e3d cb30 95bc 4103 f2bd
00000220: 771a 7b3d ad6d f13d f8f3 47bd 2d5b 75bd
00000230: 084d c3bb 5a9b 9a3d 363d b5bd 7291 03bb
00000240: 8820 16bd 29d9 1cbe d405 453d a4cc 04be
00000250: f768 2cbe 232c 8abd 4f1c 83bd 3020 12bc
00000260: 256c 99bc ec76 12be 6f05 c1bd 4247 0b3e
00000270: 4d19 02be 54c7 f4bc faec 9dbd 3cbb 8dbd
00000280: 0a24 0abe 5612 433e c404 afbd 5597 283d
00000290: 9286 47bd d872 8ebd 819d d2bd df07 12bc
000002a0: bdfa fe3d 537e b33d 58e0 0abd ad41 c4bd
000002b0: cd2e c53d 1a6e 3e3d e203 063d eaa7 ce3d
000002c0: 4e7a ef3c acf7 96bd d760 4e3e a90e 743d
000002d0: ba5d 9a3b 6d11 e2bc 17e6 83bc 4dff 013a
000002e0: 3d45 303e 84d2 6ebd 9667 d63d 76d4 003e
000002f0: 558b 8d3d 75f5 90bb 815a 06be 7e78 e63d
00000300: 0461 25be 2d10 56bc 4190 353d 7fdb ee3d
00000310: c440 b33d 7e5c 283b a936 893c de58 613c
00000320: d1ca 833d 51f3 2cbd 2b04 a73d 20ad 4d3c
00000330: 07c3 553e bd29 2e3e c9e9 26bd c1f6 06be
00000340: 6329 033d bfae 8a3d c448 5ebe ebfb c03d
00000350: 7afd 9d3d 8c6d ba3d c54d 7cbc 5362 813e
00000360: 5a19 313d 611f 22be 464b 09be 49ab 793b
00000370: 2ab5 49bd 5ed5 62bd e308 07be eeaf bbbd
00000380: 57b5 77bd 601d c4bd 26d5 943c e3c8 1fbe
00000390: cc73 5e3d d0f9 bdbd 95fa 0f3d 5646 bdbc
000003a0: 1540 423e 5f6b 803e 1ef5 423d a31a bf3c
000003b0: f385 d73d b8a9 ebbc 3278 cbbc 242f f7bc
000003c0: 1899 31bc 692e 57be 7116 693c 28dc febd
000003d0: 93d0 94bc 6ae6 a539 b42d 8a3c b1ff b73c
000003e0: d95f f43c 0ee0 23bc ac88 b53d 63f7 bbbd
000003f0: 2c5c 023e 0187 bfbd 5aec 08be ba79 313d

blocks.0.sa.heads.0.query.weight f4 [16, 64]
-0.034141533 -0.14561017 -0.17170316 -0.05766294 0.012604589 -0.047540933 0.19063887 -0.1263797
0.14764677 -0.19740252 0.051128134 -0.1341022 0.020830257 0.088250674 0.10117498 0.041031636
-0.04304366 0.11969765 -0.015737396 -0.08964185 0.16295464 0.033601474 -0.050743483 0.07183122
0.19388002 -0.14768328 -0.19722003 -0.11244273 0.16607517 0.21882652 -0.043834902 -0.07791878
-0.044454146 -0.15408564 -0.08356559 -0.018240452 -0.010750856 0.05812098 0.024162576 0.033253018
-0.22633371 -0.16841835 -0.14056034 0.2260087 0.033590317 0.13886912 0.06407259 -0.14056551
0.14321338 0.061511777 -0.006281655 -0.008650539 -0.033272862 0.16404822 -0.057712328 -0.13012818
-0.090426825 -0.013220591 -0.14354451 -0.044139314 -0.08730169 0.050109606 0.14032665 0.03992351
0.1661729 -0.06957039 0.16309103 -0.12879696 0.06307962 -0.012416426 -0.022864442 -0.034541965
-0.049615845 -0.012908197 -0.122855306 -0.12641968 -0.041065034 -0.022368612 -0.05995747 0.11604828
0.17358391 0.06490285 0.047962774 -0.09702233 -0.2162174 0.033804428 0.098360926 -0.10479744
0.095396586 0.014474358 0.025947575 0.097795956 -0.03629439 0.09120106 0.012498698 -0.0144250905
0.00925214 -0.017102197 -0.005248602 -0.022167891 -0.2287617 -0.0013579614 0.050399806 0.13629074
0.011340075 0.14157273 -0.18042365 0.03629909 -0.25360936 -0.0094908625 0.021742828 0.09934051
-0.00307538 0.13941148 -0.13966204 -0.09790462 0.016524222 0.03456305 -0.2206856 -0.07992306
-0.020780819 0.01282495 -0.11822193 0.04950152 0.24195462 -0.009981869 -0.09932637 0.095662296
-0.0034913402 0.14715733 0.09402573 0.015017565 0.06473134 -0.0848916 -0.06359599 0.011170588
0.04021096 0.060508646 -0.17563374 0.06615203 0.06712883 -0.007269533 0.11092146 0.103356354
0.03982902 -0.07114104 -0.07339558 0.07349113 0.0068829707 0.037865914 -0.090236336 -0.15319379
-0.06677789 -0.005094718 0.05053032 -0.06661907 -0.10544373 0.021116244 -0.01692263 0.06717072
0.043837167 -0.06182465 0.0052403575 -0.08685564 0.043888513 -0.12107203 -0.07943081 -0.03243685
0.006507165 0.17458346 -0.118115135 0.047109846 -0.1188282 0.13521147 0.09115338 0.09304452
0.13812171 -0.08445699 -0.07290422 0.07507782 0.10400169 0.041064374 0.07767604 -0.117400646
0.047506753 0.057803605 -0.00607335 -0.072184265 0.049297318 0.043934986 0.04367649 0.10366555
0.0876525 -0.04203919 -0.032343667 0.0074740816 0.029749816 0.064042784 -0.14826347 -0.19517492
-0.02297719 0.11185489 -0.13068044 0.13111413 0.03493538 0.18010636 0.0045015328 0.101025544
-0.014183345 0.13722652 0.0784371 0.027863637 0.025675295 0.04875199 -0.05828929 -0.14954416
0.0024612236 -0.15899067 -0.1415587 -0.0733225 0.15698776 0.11298599 -0.090109214 -0.061189525
0.17316589 0.1110776 0.018959254 -0.1503406 -0.1481146 -0.10103627 -0.00012872569 0.101315275
-0.10296268 -0.07956629 0.017162528 0.08713412 0.05124214 -0.0029788646 0.14855075 -0.04336015
0.08867542 0.051327888 -0.09804958 0.07056092 -0.07364178 0.0498281 -0.11743395 -0.1376875
0.22434933 -0.07970836 -0.08557465 -0.13680328 -0.05872217 0.078590155 0.10281679 -0.10621152
00000000: fed7 0bbd d51a 15be f4d2 2fbe fa2f 6cbd
00000010: 7a83 4e3c 48ba 42bd d636 433e ae69 01be
00000020: b730 173e e323 4abe bc6b 513d 1652 09be
00000030: 37a4 aa3c c5bc b43d d434 cf3d ca10 283d
00000040: 8d4e 30bd 0b24 f53d b6eb 80bc 2596 b7bd
00000050: 95dd 263e b3a1 093d 66d8 4fbd 3f1c 933d
00000060: 7c88 463e 493a 17be 0cf4 49be 6048 e6bd
00000070: 9c0f 2a3e 0f14 603e 3a8c 33bd e293 9fbd
00000080: 8d15 36bd a0c8 1dbe 7024 abbd 006d 95bc
00000090: 5c24 30bc 4410 6e3d 98f0 c53c 5134 083d
000000a0: 06c4 67be dc75 2cbe 0def 0fbe d36e 673e
000000b0: 0096 093d b533 0e3e 7d38 833d 68f0 0fbe
000000c0: 87a6 123e c6f3 7b3d 57d6 cdbb feba 0dbc
000000d0: 2049 08bd 42fc 273e c363 6cbd 5240 05be
000000e0: b331 b9bd 2d9b 58bc 55fd 12be 6dcb 34bd
000000f0: 3acb b2bd bb3f 4d3d cab1 0f3e d686 233d
00000100: 3b29 2a3e ec7a 8ebd 5601 273e 5ae3 03be
00000110: e32f 813d 446e 4bbc 364e bbbc e07b 0dbd
00000120: fc39 4bbd e77c 53bc 909b fbbd 2974 01be
00000130: cf33 28bd 613e b7bc f795 75bd b8aa ed3d
00000140: fbbf 313e c9eb 843d 9d74 443d a5b3 c6bd
00000150: 1868 5dbe 8376 0a3d 7471 c93d 0aa0 d6bd
00000160: 495f c33d dc25 6d3c 0290 d43c 3f49 c83d
00000170: 6da9 14bd 9fc7 ba3d 57c7 4c3c 3757 6cbc
00000180: 4a96 173c e819 8cbc 77fc abbb 7099 b5bc
00000190: 8240 6abe a0fd b1ba 0770 4e3d cd8f 0b3e
000001a0: b9cb 393c 71f8 103e fac0 38be 5bae 143d
000001b0: 16d9 81be 907f 1bbc 041e b23c 0a73 cb3d
000001c0: 518c 49bb e2c1 0e3e 9103 0fbe 3882 c8bd
000001d0: ce5d 873c fc91 0d3d 68fb 61be b4ae a3bd
000001e0: 893c aabc bd1f 523c 571e f2bd 1bc2 4a3d
000001f0: f4c2 773e fe8a 23bc a06b cbbd 98ea c33d
00000200: f8ce 64bb 69b0 163e 9090 c03d 3c0c 763c
00000210: dd91 843d a6db adbd 9d3e 82bd d804 373c
00000220: 3fb4 243d ead7 773d 55d9 33be b77a 873d
00000230: d77a 893d 4335 eebb ca2a e33d 7fac d33d
00000240: c123 233d 65b2 91bd 6c50 96bd 8482 963d
00000250: 8b8a e13b 4a19 1b3d d4cd b8bd d5de 1cbe
00000260: d9c2 88bd 98f1 a6bb e1f8 4e3d 946f 88bd
00000270: e2f2 d7bd f9fb ac3c 54a1 8abc cd90 893d
00000280: 9a8e 333d d83b 7dbd 4eb7 ab3b 5fe1 b1bd
00000290: 71c4 333d 9df4 f7bd 9fac a2bd 81dc 04bd
000002a0: 0e3a d53b 02c6 323e 59e6 f1bd 41f6 403d
000002b0: 335c f3bd e074 0a3e a0ae ba3d 208e be3d
000002c0: c76f 0d3e c9f7 acbd cf4e 95bd 66c2 993d
000002d0: d7fe d43d 1e33 283d 9e14 9f3d c06f f0bd
000002e0: 7196 423d 79c3 6c3d f402 c7bb 58d5 93bd
000002f0: fceb 493d 2cf5 333d 1fe6 323d 9b4e d43d
00000300: 2783 b33d 4931 2cbd cb7a 04bd 24e9 f43b
00000310: e3b5 f33c dd28 833d 61d2 17be efdb 47be
00000320: a93a bcbc 2d14 e53d 18d1 05be c842 063e
00000330: 6718 0f3d cd6d 383e 9881 933b 7be6 ce3d
00000340: 4361 68bc 1c85 0c3e a1a3 a03d 4842 e43c
00000350: ff54 d23c 2bb0 473d c0c0 6ebd 1b22 19be
00000360: 7b4c 213b 73ce 22be c4f4 10be 1b2a 96bd
00000370: 66c1 203e 3365 e73d 2e8b b8bd dea1 7abd
00000380: 6652 313e a77c e33d 7050 9b3c e3f2 19be
00000390: 5bab 17be 1bec cebd 8afa 06b9 627e cf3d
000003a0: 19de d2bd a7f3 a2bd 6e98 8c3c 6073 b23d
000003b0: 47e3 513d 0e39 43bb b01d 183e 6a9a 31bd
000003c0: 759b b53d 313d 523d 38ce c8bd 3e82 903d
000003d0: 80d1 96bd 8d18 4c3d 3681 f0bd f4fd 0cbe
000003e0: d5bb 653e 233e a3bd c341 afbd 2916 0cbe
000003f0: a886 70bd e0f3 a03d 9c91 d23d 6d85 d9bd

blocks.0.sa.heads.0.value.weight f4 [16, 64]
-0.14000693 0.19257167 -0.09531036 0.09416885 0.08970461 -0.071048446 0.00911069 -0.009456127
0.0001711092 0.048311073 -0.070210814 0.08566723 -0.03022603 0.10023164 -0.16382736 0.00769557
0.08619158 0.056351386 -0.088202104 0.103664346 -0.13238311 -0.065788575 -0.06924488 0.036661033
-0.023135642 -0.0008842689 0.034064196 0.07046913 0.093523726 -0.0024976013 0.06763845 -0.02003371
0.017063405 0.10383849 0.042040955 -0.06822257 0.099984944 -0.04269775 -0.00892536 -0.010075314
-0.0054772813 -0.0036101032 -0.03360095 -0.13932735 -0.053664327 -0.045866918 0.0515398 -0.01410885
0.09895304 -0.08982515 -0.09841288 0.08090137 -0.09592994 0.14855212 0.0115036 -0.006278276
0.000104187326 -0.09628428 0.045563318 0.05652446 -0.0281043 -0.043345466 -0.06072227 -0.046125315
-0.020753043 0.17568465 0.021427449 -0.07979746 -0.14253065 0.06283077 -0.022276178 0.025942067
0.039124012 0.033674885 -0.12318233 0.05018216 0.016356716 0.11826298 -0.054891277 -0.07780429
-0.06299055 -0.10043871 -0.017520638 0.0063644284 0.09629612 0.10058102 -0.09675161 -0.1185213
-0.0919651 -0.025359448 -0.06961618 -0.12343666 -0.08042675 0.13675043 -0.023938965 0.05294384
-0.046150405 -0.19996943 -0.16974624 -0.013507979 -0.04449605 0.06974457 0.097518064 0.09642937
-0.011575123 0.08341555 -0.056796324 -0.09031341 -0.023288574 0.0030201464 -0.016816821 0.03769368
-0.09296017 -0.08961854 0.023264525 -0.03176154 -0.09033027 -0.012150149 0.058631733 -0.006031768
0.04744745 0.053164996 0.07626766 0.012568271 0.01311954 -0.049498312 0.13481042 0.016461786
0.09587738 0.017985519 -0.08461933 0.029061012 0.002465466 -0.072991624 -0.08277317 -0.121947475
-0.0849105 -0.06751571 -0.0194258 -0.0066391593 -0.10445955 -0.054929346 0.08626685 -0.032215454
-0.08253403 0.09433287 0.031327467 -0.006609056 0.003778147 -0.035192255 -0.0904563 -0.039352965
-0.053537976 -0.060045104 -0.09992684 -0.1099914 0.008084682 -0.11017631 0.050087675 -0.096349254
-0.027942047 0.088662505 0.09870801 -0.01115151 0.054258786 0.12292666 0.013915291 -0.0902741
-0.05441445 -0.07428193 -0.06342416 -0.12091724 -0.061287694 -0.05278978 -0.060631257 0.14047393
0.066683106 -0.008882674 0.032104753 0.037823007 0.07164624 0.07230427 -0.13163893 -0.09072145
0.014711932 -0.10701336 -0.018686434 0.07541336 0.0077831955 0.06398922 -0.034261566 -0.06086773
0.09510888 -0.102131136 -0.12687102 -0.021747435 -0.122553125 0.010121509 0.067597345 -0.10418526
0.061485674 0.02755424 0.069644354 0.06865991 -0.052015737 0.045953073 -0.041621506 -0.08983904
0.10361381 0.07301425 0.1257252 0.010258108 -0.059814937 0.036972802 -0.05865839 -0.08756924
0.08759809 0.076963305 -0.12529433 0.04456645 -0.024137544 -0.023652257 -0.08124852 0.0828679
-0.13419205 0.021275267 -0.1358067 0.09869321 -0.022447135 0.030902367 -0.09259345 0.008044526
0.004200026 0.08075644 -0.1272429 -0.015961159 0.06584765 0.035245243 0.11776844 0.07442756
-0.0424079 0.13297352 0.022754302 -0.017834198 -0.06968034 -0.06635343 0.087905385 -0.018235315
0.044178236 0.003533574 -0.03841765 0.057062596 -0.12014579 0.08352818 0.06730818 0.054074865
00000000: fa5d 0fbe 8231 453e 1432 c3bd 99db c03d
00000010: 0db7 b73d d981 91bd 0145 153c dfed 1abc
00000020: c76b 3339 d5e1 453d b0ca 8fbd 4d72 af3d
00000030: 949c f7bc 3f46 cd3d 5cc2 27be 1f2b fc3b
00000040: 3685 b03d b6d0 663d 4ea3 b4bd f94d d43d
00000050: 708f 07be 29bc 86bd 42d0 8dbd e129 163d
00000060: f586 bdbc 48ce 67ba e686 0b3d 1f52 903d
00000070: 5e89 bf3d ccae 23bb 0786 8a3d bc1d a4bc
00000080: 8ec8 8b3c 46a9 d43d 2333 2c3d 46b8 8bbd
00000090: e8c4 cc3d d6e3 2ebd ac3b 12bc ee12 25bc
000000a0: c47a b3bb 7b97 6cbb 26a1 09bd d4ab 0ebe
000000b0: 20cf 5bbd f3de 3bbd 661b 533d ce28 67bc
000000c0: e4a7 ca3d 40f6 b7bd b18c c9bd 9eaf a53d
000000d0: eb76 c4bd 0c1e 183e 9879 3c3c ffb9 cdbb
000000e0: 257f da38 b130 c5bd 9aa0 3a3d 3186 673d
000000f0: fd3a e6bc 048b 31bd eab7 78bd e6ed 3cbd
00000100: 4902 aabc ade6 333e 9e88 af3c da6c a3bd
00000110: 8ef3 11be 6bad 803d 887c b6bc 7584 d43c
00000120: 8040 203d adee 093d 0447 fcbd cf8b 4d3d
00000130: 85fe 853c dc33 f23d add5 60bd db57 9fbd
00000140: 3101 81bd cfb2 cdbd 7187 8fbc b28c d03b
00000150: e636 c53d 6cfd cd3d b525 c6bd 4cbb f2bd
00000160: 3358 bcbd 9ebe cfbc ee92 8ebd 5ccc fcbd
00000170: c8b6 a4bd 4e08 0c3e a61b c4bc a4db 583d
00000180: 3508 3dbd c9c4 4cbe f5d1 2dbe 9250 5dbc
00000190: 7d41 36bd 3ed6 8e3d 8db7 c73d c37c c53d
000001a0: 96a5 3dbc c6d5 aa3d 43a3 68bd 3df6 b8bd
000001b0: aec7 bebc a6ed 453b 6ec3 89bc b064 1a3d
000001c0: e761 bebd ed89 b7bd 3f95 be3c 6318 02bd
000001d0: 14ff b8bd 6b11 47bc d427 703d 23a6 c5bb
000001e0: 4258 423d 8ac3 593d 3832 9c3d 26eb 4d3c
000001f0: 57f3 563c bebe 4abd be0b 0a3e deda 863c
00000200: 5c5b c43d 5e56 933c e64c adbd 5c11 ee3c
00000210: a893 213b a27c 95bd fb84 a9bd 99bf f9bd
00000220: 8ee5 adbd ad45 8abd db22 9fbc 4e8d d9bb
00000230: e3ee d5bd 98fd 60bd adac b03d 5af4 03bd
00000240: 9a07 a9bd 9731 c13d 3b51 003d c890 d8bb
00000250: ca9a 773b c125 10bd 2741 b9bd 9330 21bd
00000260: a34a 5bbd dbf1 75bd 71a6 ccbd 2c43 e1bd
00000270: 9d75 043c 1ea4 e1bd bc28 4d3d c252 c5bd
00000280: b8e6 e4bc b094 b53d 6d27 ca3d d3b4 36bc
00000290: 763e 5e3d f9c0 fb3d f6fc 633c a1e1 b8bd
000002a0: b0e1 5ebd 2021 98bd 87e4 81bd 75a3 f7bd
000002b0: ce08 7bbd 193a 58bd 7b58 78bd 66d8 0f3e
000002c0: 2791 883d a388 11bc 4680 033d 4cec 1a3d
000002d0: 44bb 923d 4314 943d 5bcc 06be 2bcc b9bd
000002e0: 510a 713c d229 dbbd 4b14 99bc 5272 9a3d
000002f0: 2d0a ff3b c80c 833d db55 0cbd 7150 79bd
00000300: 72c8 c23d 212a d1bd 7aea 01be ad27 b2bc
00000310: 22fd fabd b0d4 253c 7a70 8a3d 155f d5bd
00000320: 67d8 7b3d 6eb9 e13c b3a1 8e3d 919d 8c3d
00000330: 740e 55bd 4a39 3c3d 507b 2abd 88fd b7bd
00000340: 7a33 d43d 7f88 953d 1bbe 003e a011 283c
00000350: 8200 75bd cb70 173d c843 70bd 8057 b3bd
00000360: a166 b33d f09e 9d3d 284d 00be 4f8b 363d
00000370: 19bc c5bc 61c2 c1bc a065 a6bd a5b6 a93d
00000380: a469 09be 7849 ae3c e910 0bbe aa1f ca3d
00000390: 0ee3 b7bc f626 fd3c a2a1 bdbd 30cd 033c
000003a0: 5fa0 893b a263 a53d f64b 02be fac0 82bc
000003b0: 22db 863d 515d 103d 9430 f13d 7a6d 983d
000003c0: e8b3 2dbd 362a 083e 3b67 ba3c 0619 92bc
000003d0: 91b4 8ebd 4fe4 87bd bd07 b43d 3a62 95bc
000003e0: 3df4 343d 8993 673b d35b 1dbd 78ba 693d
000003f0: ff0e f6bd d310 ab3d dfd8 893d 9b7d 5d3d

blocks.0.sa.heads.1.tril f4 [128, 128]
1.0 0.0 0.0 0.0 0.0 0.0 0.0 0.0
0.0 0.0 0.0 0.0 0.0 0.0 0.0 0.0
0.0 0.0 0.0 0.0 0.0 0.0 0.0 0.0
0.0 0.0 0.0 0.0 0.0 0.0 0.0 0.0
0.0 0.0 0.0 0.0 0.0 0.0 0.0 0.0
0.0 0.0 0.0 0.0 0.0 0.0 0.0 0.0
0.0 0.0 0.0 0.0 0.0 0.0 0.0 0.0
0.0 0.0 0.0 0.0 0.0 0.0 0.0 0.0
0.0 0.0 0.0 0.0 0.0 0.0 0.0 0.0
0.0 0.0 0.0 0.0 0.0 0.0 0.0 0.0
0.0 0.0 0.0 0.0 0.0 0.0 0.0 0.0
0.0 0.0 0.0 0.0 0.0 0.0 0.0 0.0
0.0 0.0 0.0 0.0 0.0 0.0 0.0 0.0
0.0 0.0 0.0 0.0 0.0 0.0 0.0 0.0
0.0 0.0 0.0 0.0 0.0 0.0 0.0 0.0
0.0 0.0 0.0 0.0 0.0 0.0 0.0 0.0
1.0 1.0 0.0 0.0 0.0 0.0 0.0 0.0
0.0 0.0 0.0 0.0 0.0 0.0 0.0 0.0
0.0 0.0 0.0 0.0 0.0 0.0 0.0 0.0
0.0 0.0 0.0 0.0 0.0 0.0 0.0 0.0
0.0 0.0 0.0 0.0 0.0 0.0 0.0 0.0
0.0 0.0 0.0 0.0 0.0 0.0 0.0 0.0
0.0 0.0 0.0 0.0 0.0 0.0 0.0 0.0
0.0 0.0 0.0 0.0 0.0 0.0 0.0 0.0
0.0 0.0 0.0 0.0 0.0 0.0 0.0 0.0
0.0 0.0 0.0 0.0 0.0 0.0 0.0 0.0
0.0 0.0 0.0 0.0 0.0 0.0 0.0 0.0
0.0 0.0 0.0 0.0 0.0 0.0 0.0 0.0
0.0 0.0 0.0 0.0 0.0 0.0 0.0 0.0
0.0 0.0 0.0 0.0 0.0 0.0 0.0 0.0
0.0 0.0 0.0 0.0 0.0 0.0 0.0 0.0
0.0 0.0 0.0 0.0 0.0 0.0 0.0 0.0
00000000: 0000 803f 0000 0000 0000 0000 0000 0000
00000010: 0000 0000 0000 0000 0000 0000 0000 0000
00000020: 0000 0000 0000 0000 0000 0000 0000 0000
00000030: 0000 0000 0000 0000 0000 0000 0000 0000
00000040: 0000 0000 0000 0000 0000 0000 0000 0000
00000050: 0000 0000 0000 0000 0000 0000 0000 0000
00000060: 0000 0000 0000 0000 0000 0000 0000 0000
00000070: 0000 0000 0000 0000 0000 0000 0000 0000
00000080: 0000 0000 0000 0000 0000 0000 0000 0000
00000090: 0000 0000 0000 0000 0000 0000 0000 0000
000000a0: 0000 0000 0000 0000 0000 0000 0000 0000
000000b0: 0000 0000 0000 0000 0000 0000 0000 0000
000000c0: 0000 0000 0000 0000 0000 0000 0000 0000
000000d0: 0000 0000 0000 0000 0000 0000 0000 0000
000000e0: 0000 0000 0000 0000 0000 0000 0000 0000
000000f0: 0000 0000 0000 0000 0000 0000 0000 0000
00000100: 0000 0000 0000 0000 0000 0000 0000 0000
00000110: 0000 0000 0000 0000 0000 0000 0000 0000
00000120: 0000 0000 0000 0000 0000 0000 0000 0000
00000130: 0000 0000 0000 0000 0000 0000 0000 0000
00000140: 0000 0000 0000 0000 0000 0000 0000 0000
00000150: 0000 0000 0000 0000 0000 0000 0000 0000
00000160: 0000 0000 0000 0000 0000 0000 0000 0000
00000170: 0000 0000 0000 0000 0000 0000 0000 0000
00000180: 0000 0000 0000 0000 0000 0000 0000 0000
00000190: 0000 0000 0000 0000 0000 0000 0000 0000
000001a0: 0000 0000 0000 0000 0000 0000 0000 0000
000001b0: 0000 0000 0000 0000 0000 0000 0000 0000
000001c0: 0000 0000 0000 0000 0000 0000 0000 0000
000001d0: 0000 0000 0000 0000 0000 0000 0000 0000
000001e0: 0000 0000 0000 0000 0000 0000 0000 0000
000001f0: 0000 0000 0000 0000 0000 0000 0000 0000
00000200: 0000 803f 0000 803f 0000 0000 0000 0000
00000210: 0000 0000 0000 0000 0000 0000 0000 0000
00000220: 0000 0000 0000 0000 0000 0000 0000 0000
00000230: 0000 0000 0000 0000 0000 0000 0000 0000
00000240: 0000 0000 0000 0000 0000 0000 0000 0000
00000250: 0000 0000 0000 0000 0000 0000 0000 0000
00000260: 0000 0000 0000 0000 0000 0000 0000 0000
00000270: 0000 0000 0000 0000 0000 0000 0000 0000
00000280: 0000 0000 0000 0000 0000 0000 0000 0000
00000290: 0000 0000 0000 0000 0000 0000 0000 0000
000002a0: 0000 0000 0000 0000 0000 0000 0000 0000
000002b0: 0000 0000 0000 0000 0000 0000 0000 0000
000002c0: 0000 0000 0000 0000 0000 0000 0000 0000
000002d0: 0000 0000 0000 0000 0000 0000 0000 0000
000002e0: 0000 0000 0000 0000 0000 0000 0000 0000
000002f0: 0000 0000 0000 0000 0000 0000 0000 0000
00000300: 0000 0000 0000 0000 0000 0000 0000 0000
00000310: 0000 0000 0000 0000 0000 0000 0000 0000
00000320: 0000 0000 0000 0000 0000 0000 0000 0000
00000330: 0000 0000 0000 0000 0000 0000 0000 0000
00000340: 0000 0000 0000 0000 0000 0000 0000 0000
00000350: 0000 0000 0000 0000 0000 0000 0000 0000
00000360: 0000 0000 0000 0000 0000 0000 0000 0000
00000370: 0000 0000 0000 0000 0000 0000 0000 0000
00000380: 0000 0000 0000 0000 0000 0000 0000 0000
00000390: 0000 0000 0000 0000 0000 0000 0000 0000
000003a0: 0000 0000 0000 0000 0000 0000 0000 0000
000003b0: 0000 0000 0000 0000 0000 0000 0000 0000
000003c0: 0000 0000 0000 0000 0000 0000 0000 0000
000003d0: 0000 0000 0000 0000 0000 0000 0000 0000
000003e0: 0000 0000 0000 0000 0000 0000 0000 0000
000003f0: 0000 0000 0000 0000 0000 0000 0000 0000

blocks.0.sa.heads.1.key.weight f4 [16, 64]
-0.026897019 0.21930958 0.06462474 -0.13874467 -0.111151464 -0.12534687 0.059520632 0.07191419
-0.05277792 -0.106148586 0.0056814672 0.057762012 -0.032180633 -0.13534078 -0.0075063277 0.12036355
0.016820075 0.081636496 -0.16094024 0.16084343 0.12932552 -0.10743549 -0.018414067 0.19932649
-0.03554979 0.022580858 -0.11181088 0.11381827 -0.13075125 0.07145102 0.12895271 -0.034466825
0.0465045 -0.19828127 0.07752619 0.0064503103 0.102194436 -0.08566897 0.16665061 0.11570498
-0.098186366 0.20983273 0.12717505 0.00052417297 0.08571545 -0.045436934 -0.094335 -0.18270034
0.12057227 -0.13363802 0.069077194 0.051742624 0.18589225 -0.04026373 0.07640955 0.04151852
-0.3027815 -0.035912696 0.10195439 -0.16538574 0.15003106 0.17109083 0.14507806 -0.087440364
-0.029957168 -0.10992633 0.04116003 0.041374825 0.07858316 -0.09899001 -0.05141772 -0.14867608
-0.041699614 -0.10610139 0.13797596 0.14428252 -0.044865087 -0.012660573 0.042808246 -0.052877404
0.16953886 -0.051559273 0.019131197 -0.07755568 -0.24679278 -0.012271435 0.034380812 0.17445433
-0.013188697 0.13664973 0.106952205 -0.031206304 -0.062693775 0.06968702 0.024778647 0.09936069
-0.06497571 0.17536223 0.0027695722 0.03325798 -0.057775486 -0.014758157 0.028185429 -0.106208175
-0.08217147 0.089233615 -0.11113924 -0.0865063 -0.096692674 0.071861155 0.054044984 -0.07413684
-0.15190297 0.1371021 0.10575053 0.054315086 0.04594253 0.03635548 -0.1027543 0.11202247
0.07125763 0.026123531 -0.084218316 0.12765734 -0.118967265 0.15598744 -0.15928128 -0.13113947
-0.17512539 -0.14478709 -0.029521171 -0.03766253 0.07356575 -0.027037658 -0.028561188 0.1252197
0.052159883 0.016492518 -0.08480021 -0.059817996 0.017671091 0.035195585 -0.06396477 0.026213206
0.035263535 0.052235454 0.13214931 -0.061080314 -0.12343517 0.053616624 -0.11407754 -0.12550394
-0.0071207 0.06803913 -0.1629833 -0.08250791 0.03555765 -0.19186062 0.016090369 -0.043218438
-0.09511673 -0.039878353 0.08618562 0.0654223 -0.079617485 -0.014875849 0.039798453 0.10751569
0.21977505 0.13108459 -0.13979992 -0.115686655 -0.080769196 -2.7856642e-05 -0.14516783 0.15807985
0.12801251 0.17563665 -0.0055081085 -0.048309907 -0.016535424 0.076611795 0.043647397 -0.0008694425
-0.06672978 0.11470224 0.085138105 0.008390612 0.039640024 0.13153218 0.013952645 -0.0666846
-0.009936562 0.03755198 0.13994588 -0.17089109 0.021654358 -0.07494675 0.11860814 0.18495357
-0.013352485 0.01726211 -0.035840217 -0.04994866 0.011239073 0.15082982 -0.01059057 0.21255161
-0.22783591 0.0061754393 -0.11099362 -0.020661814 0.2598333 0.010932893 -0.15324774 -0.009102483
-0.16893618 -0.082332544 -0.09789907 -0.04440115 -0.0022454686 0.057414863 -0.03800072 0.009358349
-0.018349098 -0.19378015 -0.16868153 -0.08877076 0.113416 0.06785703 0.028112488 0.094876505
0.048631705 0.12637846 0.11898506 0.100267634 0.0925904 -0.0052522104 -0.12108059 -0.263814
0.074881785 -0.19014537 -0.0038887367 -0.05171123 0.23247552 -0.09617308 0.201756 -0.019776253
-0.21238007 0.06717884 0.16879943 -0.13793963 0.1684689 -0.07600557 0.06576615 0.01140619
00000000: 2357 dcbc b192 603e fa59 843d 1513 0ebe
00000010: 61a3 e3bd ee5a 00be e8cb 733d bf47 933d
00000020: a92d 58bd 6e64 d9bd 9a2b ba3b dc97 6c3d
00000030: d7cf 03bd c696 0abe a4f7 f5bb 2a81 f63d
00000040: 41ca 893c 0931 a73d 85cd 24be 24b4 243e
00000050: e96d 043e 2307 dcbd 19d9 96bc 3e1c 4c3e
00000060: a89c 11bd 7efb b83c 1afd e4bd 8e19 e93d
00000070: a8e3 05be ea54 923d 2e0c 043e 162d 0dbd
00000080: 817b 3e3d 3f0a 4bbe 0dc6 9e3d 205d d33b
00000090: 514b d13d 3773 afbd 75a6 2a3e bcf6 ec3d
000000a0: ef15 c9bd 64de 563e 2d3a 023e a768 093a
000000b0: 958b af3d 141c 3abd b532 c1bd cc15 3bbe
000000c0: 98ee f63d 68d8 08be 5878 8d3d 13f0 533d
000000d0: 8a5a 3e3e 95eb 24bd 9c7c 9c3d 530f 2a3d
000000e0: 2d06 9bbe 3119 13bd 77cd d03d e15a 29be
000000f0: bea1 193e 6f32 2f3e 588f 143e ef13 b3bd
00000100: bc68 f5bc 0e21 e1bd 6b97 283d a678 293d
00000110: 35f0 a03d 46bb cabd 639b 52bd 8b3e 18be
00000120: 37cd 2abd b04b d9bd 9249 0d3e ccbe 133e
00000130: 74c4 37bd 4b6e 4fbc b357 2f3d fa95 58bd
00000140: 989b 2d3e d12f 53bd 07b9 9c3c 83d5 9ebd
00000150: 3fb7 7cbe 210e 49bc e5d2 0c3d 28a4 323e
00000160: 6815 58bc e8ed 0b3e c209 db3d 5da4 ffbc
00000170: 9865 80bd 11b8 8e3d 97fc ca3c 9e7d cb3d
00000180: fc11 85bd 2892 333e b681 353b 8539 083d
00000190: fda5 6cbd 32cc 71bc 21e5 e63c ac83 d9bd
000001a0: 8449 a8bd 1dc0 b63d f89c e3bd 372a b1bd
000001b0: cf06 c6bd f12b 933d 465e 5d3d 0ed5 97bd
000001c0: 748c 1bbe 7e64 0c3e bc93 d83d 7f79 5e3d
000001d0: 3c2e 3c3d 7ce9 143d d970 d2bd 096c e53d
000001e0: 85ef 913d 0401 d63c a77a acbd 9bb8 023e
000001f0: 1ca5 f3bd 2cbb 1f3e a21a 23be 6d49 06be
00000200: 1254 33be 1143 14be 62d6 f1bc 0644 1abd
00000210: a4a9 963d 147e ddbc 27f9 e9bc 9839 003e
00000220: 9aa5 553d 511b 873c bcab adbd b703 75bd
00000230: f7c2 903c 3f29 103d f6ff 82bd 14bd d63c
00000240: 7f70 103d d8f4 553d 2652 073e 5a2f 7abd
00000250: 94cb fcbd 1b9d 5b3d 7ca1 e9bd 1b84 00be
00000260: c354 e9bb 1958 8b3d 18e5 26be e8f9 a8bd
00000270: e6a4 113d 1c77 44be f3cf 833c d105 31bd
00000280: 8fcc c2bd 7c57 23bd 1682 b03d 20fc 853d
00000290: 7e0e a3bd d5b9 73bc b403 233d 3031 dc3d
000002a0: b60c 613e 0a3b 063e b627 0fbe 20ed ecbd
000002b0: 526a a5bd afad e9b7 e0a6 14be afdf 213e
000002c0: b615 033e 18da 333e 5d7d b4bb 9ce0 45bd
000002d0: 4c75 87bc a5e6 9c3d 9dc7 323d 4ceb 63ba
000002e0: 9fa9 88bd 02e9 ea3d e35c ae3d c778 093c
000002f0: 945d 223d 5fb0 063e a299 643c f091 88bd
00000300: f6cc 22bc 1bd0 193d f94d 0f3e 13fe 2ebe
00000310: 7b64 b13c af7d 99bd d3e8 f23d 7864 3d3e
00000320: 62c4 5abc 4569 8d3c 31cd 12bd f796 4cbd
00000330: 1724 383c 2273 1a3e 1284 2dbc 21a7 593e
00000340: d14d 69be 575b ca3b 9f50 e3bd f742 a9bc
00000350: df08 853e e01f 333c faec 1cbe 9522 15bc
00000360: 9bfd 2cbe f79d a8bd 4f7f c8bd fbdd 35bd
00000370: b628 13bb d92b 6b3d a5a6 1bbd c353 193c
00000380: d950 96bc 4e6e 46be daba 2cbe 72cd b5bd
00000390: a646 e83d a0f8 8a3d 294c e63c 9d4e c23d
000003a0: 0a32 473d 5b69 013e 70ae f33d 1e59 cd3d
000003b0: 09a0 bd3d bc1a acbb 1af9 f7bd a112 87be
000003c0: 9f5b 993d 78b5 42be 2dda 7ebb 28cf 53bd
000003d0: 100e 6e3e 64f6 c4bd 2099 4e3e cf01 a2bc
000003e0: 297a 59be 0f95 893d c2d9 2c3e 0c40 0dbe
000003f0: 1c83 2c3e cfa8 9bbd 67b0 863d 07e1 3a3c
